learmachin/trained_model1.pth (torch, 2057 bytes, 3 tensors)

hidden.weight f4 [32, 1]
00000000: 81e1 7cbf f4b0 9bbf 8c2b 54bf a01f 1bbe
00000010: e0b6 77bf 742e 37bf 5343 8dbf 4bf9 16bf
00000020: 5c42 bcbe abc9 8dbf 9866 4dbe a658 6ebf
00000030: 2e2d 50bf 8c07 6ebf aa55 96bf 5867 69bf
00000040: 34d1 11bf 99b1 a0bf 40d0 8abc ec3f 71bf
00000050: 72e2 13bf 284a 75be c0cf 55be 4ab2 5fbf
00000060: 4817 29bf 66ea a6bf 4666 7fbf fe45 c4bf
00000070: 773f c4bf d402 06bf 2890 1fbf aa7a 56bf
-0.9878159 -1.2163377 -0.8287895 -0.15148783 -0.9676342 -0.71555257 -1.1036171 -0.5897414
-0.36769378 -1.1077169 -0.20058668 -0.93104017 -0.8131894 -0.92980266 -1.1744893 -0.91173315
-0.56959844 -1.2554199 -0.016945004 -0.9423816 -0.57767403 -0.2395407 -0.20880032 -0.8738142
-0.6605115 -1.3040283 -0.9976543 -1.533386 -1.5331868 -0.52348065 -0.6232934 -0.8378092

hidden.bias f4 [32]
00000000: 0abf 04c0 d84c 25bf f9bd f9bf ac1d 8f3e
00000010: a0e4 63bf 14c9 6e3f 9505 62bf 023d f0be
00000020: 6853 74be 1d22 bebf 1230 2bbf a575 d7be
00000030: 3075 ecbe 4f5b 0ac0 8732 69bf f0d9 5dbf
00000040: 588d 1abf 9ec1 87bf 1403 ad3e 126c 713f
00000050: 6458 bdbe 30c9 63be c29e 25bf 3e84 01c0
00000060: 9025 193f 06c5 15c0 c2ba febf 9e59 07c0
00000070: 9022 1dc0 f81b 9cbe bc3b dcbe 1866 54be
-2.07416 -0.6457038 -1.95111 0.27952325 -0.8902073 0.9327557 -0.8828977 -0.46921545
-0.23859942 -1.485416 -0.66870224 -0.42081943 -0.46183157 -2.161823 -0.91092724 -0.8666067
-0.60371923 -1.0605962 0.3379141 0.9430553 -0.369815 -0.22244716 -0.6469537 -2.0236964
0.5982294 -2.3401504 -1.9900744 -2.1148448 -2.4552345 -0.30490088 -0.43014324 -0.2074207

out.weight f4 [1, 32]
00000000: f133 3b3f 3f37 783f b6b6 343f f2de 05bd
00000010: 7e14 40bd afc5 973d 325c e13d f1b3 c23e
00000020: 0300 973d 338e a53e bba7 d4bd e016 863f
00000030: 2e0f f4bd f3c0 ee3e ccd4 8a3f 5ada dbbd
00000040: 1c44 a9bd 551f 4e3f 5c8d b03d 10ec 34be
00000050: 76d2 963c b984 253e 58ee 493d 102c 823f
00000060: 0977 073d a3dd 2d3f 0449 7e3f 4578 553f
00000070: cfaf 533f ef07 bbbd b74b 22bd e606 063d
0.7312613 0.969593 0.70591295 -0.03268332 -0.046894543 0.07410752 0.11003913 0.3802791
0.07373049 0.32335052 -0.103835545 1.0475731 -0.11916958 0.46631584 1.084619 -0.10735007
-0.08264944 0.8051656 0.08620712 -0.17668176 0.018410902 0.16163911 0.049299568 1.0169697
0.033072505 0.67916316 0.99330163 0.8338664 0.8269014 -0.091323726 -0.03962299 0.032721423
