learmachin/trained_model.pth (torch, 2051 bytes, 3 tensors)

hidden.weight f4 [32, 1]
00000000: b68d 3dbc dc26 c2be de7b 7bbf 804d 8bbd
00000010: c066 4abf 54e6 00bf 61bb 30be a844 b7be
00000020: 453e 56bf 4093 c4bd f492 39be 5bdd 3dbf
00000030: cc90 05bf cc62 0cbf 24e8 15bf 949e dcbc
00000040: 006a 13be 45da 0abf 3044 28bf a097 56be
00000050: d019 58bf 8ca7 a0be e35d fcbe 89e9 09bf
00000060: 1cbf a3be 3836 64bf 888d 6bbd 8218 3cbe
00000070: f9d4 88be 3ddf 12bf cf62 71b9 24e0 c0be
-0.011569431 -0.37920272 -0.9823588 -0.06801891 -0.79063034 -0.5035145 -0.1725898 -0.35794568
-0.83688766 -0.09598398 -0.18122464 -0.74165887 -0.5217407 -0.5483825 -0.58557343 -0.026931085
-0.14395905 -0.542393 -0.65729046 -0.20956278 -0.84414387 -0.31377828 -0.4929038 -0.5387197
-0.31981742 -0.8914523 -0.05750802 -0.18368724 -0.26724985 -0.57371885 -0.0002302036 -0.37671006

hidden.bias f4 [32]
00000000: 8607 cdbf 064b 5abf 1890 bfbe 44a8 2f3f
00000010: 5295 0dbf d427 3d3f aca4 55be 09b7 9bbf
00000020: 34c7 babf a8be 0bbf 2335 b4be 4428 b1bf
00000030: a07a 36bf 10b2 69be 7490 d3be 881d 6fbf
00000040: 0561 dbbf 4e86 3dbe 805e 7ebd 85b7 23bf
00000050: c260 19bf f0b0 5dbe 272e 75bf 3022 b3bf
00000060: 50e0 9b3d 8c16 e03e a032 c63d 6eb2 0fbf
00000070: 6f6e 76bd a3c3 92be 8974 c9bf 0834 30bf
-1.6017921 -0.85270727 -0.37414622 0.6861613 -0.5530597 0.738889 -0.20863599 -1.2165233
-1.4592042 -0.54587793 -0.3519679 -1.3840413 -0.7128086 -0.22821832 -0.41321146 -0.93404436
-1.7138983 -0.18508264 -0.06210184 -0.63951904 -0.59913266 -0.21649528 -0.9577355 -1.3994808
0.076111436 0.43767202 0.09677625 -0.5613164 -0.06016391 -0.28664884 -1.5738689 -0.68829393

out.weight f4 [1, 32]
00000000: e2cc 7cbd 2bea b7be 4061 acbc 30f3 7b3c
00000010: a448 92bc f50c 1e3d 8115 d5bb 6b3d 52bc
00000020: 0b7e e4bd 926b d0bd 4225 14bd 2652 e5be
00000030: 72e0 3cbd 03fa 5a3d f21c 2d3e 5be1 65bd
00000040: 7936 883c 4e2a 943e 75c5 1c3e 7561 223c
00000050: 64af 34bd 646d f4bd ae1f dabe 7227 8f3e
00000060: a1cf b0bd 90c3 49bd ac90 9ebd e764 3cbd
00000070: f6ea 95bc 967b 0a3f 52b6 7abd a89a f4bd
-0.06171883 -0.35920843 -0.021042466 0.015377805 -0.017856903 0.038586576 -0.0065028076 -0.012832026
-0.11156853 -0.101767674 -0.036168344 -0.44789237 -0.046112485 0.053461086 0.16905573 -0.05612312
0.016627537 0.28938526 0.15309699 0.009910931 -0.044112578 -0.11934927 -0.42602295 0.27959782
-0.08633352 -0.04925877 -0.07742438 -0.045994665 -0.018300515 0.5409483 -0.06120903 -0.11943561
